homework/2023200440_李应_lab8/cifar_net.pth (torch, 30108 bytes, 6 tensors)

conv1.weight f4 [6, 3, 5, 5]
0	0x3d213e6d	0.039366174
1	0x3cdf1aab	0.027234396
2	0xbd0c31cc	-0.034227178
3	0xbc839efc	-0.01606702
4	0xbdd6053c	-0.10450217
5	0x3e01f93e	0.12692735
6	0xbc6c810d	-0.014435065
7	0xbd4e80ae	-0.050415687
8	0x3c0d3bb1	0.008620189
9	0x3d27f2a5	0.04100289
10	0x3e1d27fc	0.15347284
11	0x3d02dcc7	0.03194883
12	0xbc946db7	-0.018118722
13	0xbd89772f	-0.067121856
14	0xbcb09729	-0.021556454
15	0x3e447ec7	0.19188987
16	0x3c870ffc	0.016487114
17	0x3c9fdff4	0.019515969
18	0xbcf657f8	-0.030071244
19	0x3d011ebb	0.031523447
20	0xbce9259d	-0.028460318
21	0xbc5bb395	-0.013409515
22	0x3d807f62	0.06274296
23	0x3e3a3cd8	0.18187273
24	0x3e0fe6f6	0.14052948
25	0xbd993986	-0.07481675
26	0xbbd316b5	-0.006441916
27	0xbcd7c479	-0.026338803
28	0x3d187c32	0.037227817
29	0xbdd2dc6b	-0.10295948
30	0x3df6d15b	0.1205165
31	0x3c1267c8	0.008935876
32	0xbdfe08f3	-0.12404051
33	0xbe288f5b	-0.16460936
34	0xbd087316	-0.03331288
35	0x3d8d1817	0.068893604
36	0x3b86c0f8	0.004112359
37	0xbd8d6ff1	-0.06906117
38	0xbdf12bc8	-0.11775929
39	0xbe1998d4	-0.14999706
40	0x3bf960b3	0.0076104044
41	0x3d9b1f6e	0.07574354
42	0xbd990e32	-0.07473411
43	0x3c7e29c2	0.0155128855
44	0xbdd724d1	-0.10505069
45	0xbe30b9a8	-0.17258322
46	0x3d9a78e8	0.07542592
47	0x3d7ff4e9	0.062489424
48	0xbc4bbe80	-0.012435555
49	0xbd1ff21f	-0.039049264
50	0x3e5161bf	0.20447443
51	0x3e28bb52	0.16477707
52	0xbcb1ca7d	-0.021703
53	0xbd882929	-0.06648476
54	0x3b97d978	0.0046340786
55	0x3e905d99	0.2819641
56	0x3e4af5f1	0.19820382
57	0x3dce2044	0.10064748
58	0xbe0c5252	-0.13703278
59	0xbe45d3cb	-0.19319074
60	0x3e9efdfe	0.31053156
61	0x3ec550ca	0.385382
62	0x3dd576a9	0.10423023
63	0xbdbdc564	-0.09266165
64	0xbe155b47	-0.14585601
65	0x3e00e4d0	0.12587285
66	0x3e9cf695	0.30656877
67	0x3dfa7405	0.1222916
68	0xbd836e84	-0.064175636
69	0xbe18453a	-0.14870158
70	0x3db5e921	0.088823564
71	0x3e6171d5	0.2201608
72	0x3e3d5fac	0.18493527
73	0xbd294f15	-0.041335184
74	0xbd61e038	-0.055145472
75	0x3d0da68a	0.034582652
76	0x3e22e5f5	0.15908034
77	0x3eb48702	0.35259253
78	0x3ed23b7b	0.41061005
79	0x3f00d3a3	0.5032293
80	0x3cb9fb68	0.022702888
81	0x3e294d11	0.16533305
82	0x3e9e2c79	0.30893305
83	0x3e8f5727	0.2799618
84	0x3e1cb7fe	0.15304562
85	0x3d9c4f77	0.07632344
86	0x3e42a031	0.1900642
87	0x3e3b0c28	0.18266356
88	0x3d269e8f	0.040678557
89	0x3d12bff8	0.035827607
90	0x3d03da26	0.032190464
91	0x3e095ac3	0.13413529
92	0xbd3b518a	-0.04573206
93	0xbe74a73c	-0.2389192
94	0xbd28375e	-0.041068427
95	0xbe0f349e	-0.13984916
96	0xbddf530d	-0.109045126
97	0xbedfca20	-0.43708897
98	0xbeae46f4	-0.34038508
99	0x3cdc5ac3	0.026898747
100	0xbdd50591	-0.10401452
101	0xbe5f3e57	-0.21801125
102	0xbe210538	-0.15724647
103	0xbe99ca86	-0.30037326
104	0xbe5db512	-0.21651104
105	0xbe9a6818	-0.30157542
106	0x3a8bca8a	0.001066522
107	0xbe002847	-0.12515365
108	0xbe6ea4b8	-0.23305023
109	0xbec99e91	-0.3937879
110	0xbe19579b	-0.14974825
111	0x3cd2f551	0.025751742
112	0xbe0f76ff	-0.14010237
113	0xbeaf9670	-0.34294462
114	0xbea9114e	-0.33021015
115	0xbbd4fb65	-0.006499695
116	0x3e09cdee	0.13457462
117	0xbe1564b4	-0.14589196
118	0xbeaad354	-0.33364356
119	0x3d82ddf7	0.06389993
120	0x3e2e83f3	0.17042522
121	0x3e0ff95d	0.14059968
122	0xbe9bc1f8	-0.30421424
123	0xbe5ef552	-0.2177327
124	0x3e61e775	0.2206095
125	0xbce62c5b	-0.028097322
126	0x3ce382f2	0.0277724
127	0x3d3fa4b1	0.04678792
128	0x3b0e7100	0.0021734834
129	0xbe27c3a4	-0.16383225
130	0x3d8d7f37	0.0690903
131	0x3cc311d8	0.02381222
132	0xbd8873e5	-0.0666273
133	0xbd671315	-0.056414682
134	0xbe4ac9d2	-0.19803551
135	0x3ccf507e	0.025306936
136	0x3e468e8a	0.19390312
137	0x3da6013e	0.08105706
138	0xbe1bbf37	-0.15209661
139	0xbd7a0c89	-0.06104711
140	0x3e6c0e82	0.2305241
141	0x3e0df78f	0.13863967
142	0xbce63379	-0.028100716
143	0xbea15324	-0.31508744
144	0x3e4f0c13	0.2021945
145	0x3ea07abf	0.31343648
146	0x3e8f5836	0.27996987
147	0xbe320b7f	-0.17387198
148	0xbe45ee2b	-0.19329135
149	0x3e9e02ca	0.30861503
150	0x3db78c0a	0.08962257
151	0x3dfcea25	0.12349347
152	0x3e8de302	0.27712256
153	0x3d623981	0.05523062
154	0xbe20bd78	-0.15697277
155	0xbcc4baef	-0.024014918
156	0x3e752e78	0.23943508
157	0xbd2e9384	-0.04262115
158	0xbdc54b27	-0.09633475
159	0x3d5c3f47	0.053771283
160	0xbe178d49	-0.1479999
161	0xbe177ba3	-0.14793257
162	0xbdaa0b63	-0.08302953
163	0x3dd6916d	0.104769565
164	0x3e8c84b7	0.27445003
165	0xbe06584c	-0.1311962
166	0xbe7c2705	-0.2462426
167	0xbe1b9de1	-0.15196945
168	0xbcb72737	-0.022357566
169	0x3e588ef8	0.21148288
170	0xbe31080d	-0.17288227
171	0xbe8de70f	-0.27715346
172	0xbea85bf8	-0.32882667
173	0xbe37458f	-0.17897628
174	0x3dd4f321	0.10397936
175	0xbd505a2e	-0.050867252
176	0x3d9f31cb	0.07773169
177	0xbd5963c6	-0.053073667
178	0xbe22b7e1	-0.15890457
179	0xbe0ee3a3	-0.13954024
180	0xbcf17c02	-0.029478077
181	0x38353e00	4.3211505e-05
182	0xbd17a0a5	-0.037018437
183	0xbe3e2c02	-0.18571475
184	0x3c7c6691	0.015405313
185	0xbe6001cb	-0.21875684
186	0xbd1a8646	-0.03772571
187	0xbdfb542f	-0.12271916
188	0x3d91e097	0.07122915
189	0x3c120040	0.008911192
190	0xbd8aa5df	-0.06769919
191	0xbe5a4d57	-0.21318565
192	0xbd584caa	-0.052807488
193	0x3dabe95c	0.08394119
194	0x3e51ce76	0.20488915
195	0xbdd51891	-0.10405076
196	0xbe74842d	-0.23878546
197	0xbe0b77a8	-0.13619864
198	0xbac136ea	-0.0014741097
199	0x3e14c1df	0.14527081
200	0x3d6b6f2c	0.05747907
201	0x3da13c05	0.07872776
202	0xbc9fdd79	-0.019514786
203	0xbd8d4a32	-0.06898917
204	0xbe8c2625	-0.27372852
205	0x3d9422cf	0.07233202
206	0x3d190f7f	0.037368294
207	0xbdabb23e	-0.083836064
208	0xbd8c6813	-0.06855788
209	0xbdb37c8e	-0.08763991
210	0xbcc18347	-0.023622168
211	0xbdcd4688	-0.100232184
212	0xbd4f1ea9	-0.05056635
213	0x3e101cc2	0.1407347
214	0x3e9a8b2e	0.3018431
215	0xbe039616	-0.12850222
216	0xbe5a8056	-0.21338019
217	0xbdcad04e	-0.09903012
218	0x3e1abf89	0.15112127
219	0x3e9ced1c	0.3064965
220	0x3d4bd558	0.049764007
221	0xbdf62abc	-0.1201987
222	0xbd62b6d0	-0.055350125
223	0x3e632692	0.22182682
224	0x3e8bcbdc	0.2730397
225	0x3cc712cf	0.02430096
226	0x3d670dd4	0.056409672
227	0x3e367a97	0.17820202
228	0x3dfafc0b	0.12255105
229	0xbcdcaf10	-0.026938945
230	0xbdeb7ba5	-0.11498193
231	0xbe4a803b	-0.19775479
232	0xbe21e5a1	-0.15810253
233	0xbd104547	-0.035222318
234	0xbe00f993	-0.12595205
235	0xbe9e858a	-0.30961257
236	0xbf0ca8ee	-0.54945266
237	0xbf101763	-0.56285685
238	0xbebefb1b	-0.37300953
239	0xbe8d41c7	-0.27589247
240	0xbcb3dc2a	-0.021955568
241	0x3d846cba	0.064660504
242	0x3d823ea8	0.06359607
243	0x3dc6b038	0.0970158
244	0x3cfd7fbc	0.030944698
245	0x3e868b54	0.26278174
246	0x3ee32204	0.4436189
247	0x3ee996fa	0.45622998
248	0x3ea32a91	0.31868413
249	0x3e648bea	0.22318998
250	0x3d16e926	0.03684344
251	0x3dd3aff1	0.103362925
252	0x3eafc5b0	0.3433051
253	0x3e6521dd	0.22376199
254	0x3bf8e03e	0.007595091
255	0x3db25bdc	0.08708927

conv1.bias f4 [6]
0	0xbdcc2667	-0.09968262
1	0xbe84e55a	-0.2595623
2	0xbf1201ec	-0.5703418
3	0xbeb77fa9	-0.35839584
4	0xbe4deb00	-0.20109177
5	0x3d8b1686	0.067914054

conv2.weight f4 [16, 6, 5, 5]
0	0x3cbaf29e	0.022820767
1	0xbd6f4577	-0.058415856
2	0x3dcf5d6b	0.1012524
3	0x3e81824a	0.25294715
4	0x3e69e5e2	0.228416
5	0xbc9ae28e	-0.018906858
6	0xbe11cfd4	-0.14239436
7	0x3cd5ccd4	0.026098646
8	0x3e1e1ce2	0.15440705
9	0x3d0997ce	0.033592038
10	0xbd3012e4	-0.042986766
11	0xbe3b8f3d	-0.1831636
12	0x3c872a29	0.016499596
13	0x3e192e78	0.14959133
14	0xbd24c233	-0.040224265
15	0xbc8893fd	-0.016672129
16	0xbe0f6d7b	-0.14006607
17	0xbba88437	-0.0051427144
18	0x3df64111	0.12024129
19	0xbdc0f3ad	-0.094214775
20	0xbc6c1a4c	-0.014410567
21	0xbdd71c21	-0.10503412
22	0x3d87afdc	0.066253394
23	0x3d00bd26	0.031430386
24	0xbd448d67	-0.047986414
25	0x3c89959d	0.016794974
26	0xbe1e1047	-0.15435897
27	0xbdba9711	-0.09110845
28	0xbd0eed23	-0.03489412
29	0x3c86051b	0.016359856
30	0x3ce49cbf	0.027906774
31	0x3caedc94	0.021345414
32	0xbddb2887	-0.10701089
33	0x3c8dd738	0.017314538
34	0x3c9517e2	0.018199865
35	0x3d258d92	0.040418215
36	0xbddca08f	-0.107728116
37	0xbd001369	-0.03126851
38	0x3d373845	0.044731397
39	0x3c3493e3	0.011021587
40	0x3d15bf77	0.03655955
41	0xbd8be53c	-0.06830832
42	0xbc968ab0	-0.018376678
43	0xbaeb5618	-0.0017954735
44	0xbcbd6816	-0.023120921
45	0xbd22daa6	-0.0397593
46	0xbd88db8c	-0.066825
47	0xbcefdd99	-0.02928047
48	0x3d280a2b	0.041025322
49	0xbd857539	-0.06516499
50	0x3d485429	0.048908386
51	0x3e03483e	0.12820527
52	0xbe0cdaa0	-0.13755274
53	0xbdecfc94	-0.11571613
54	0xbdc01e6e	-0.09380804
55	0x3cd2818c	0.025696538
56	0x3e44e5c4	0.19228274
57	0xbdcf787f	-0.10130405
58	0xbd8e1dcf	-0.06939279
59	0xbdbffe96	-0.0937473
60	0x3d4c6308	0.04989913
61	0x3e43bf42	0.19115928
62	0xbdba83c6	-0.09107165
63	0xbdb3d914	-0.08781639
64	0xbd0155ec	-0.031576082
65	0xbd8e0c23	-0.06935909
66	0x3e07b8eb	0.13254134
67	0xbe066e02	-0.13127902
68	0xbd8359fa	-0.06413646
69	0xbde8d452	-0.11368622
70	0xbe0644e0	-0.13112211
71	0x3abb3c3c	0.0014284919
72	0xbdb1e2e8	-0.08685857
73	0xbe58f775	-0.21188147
74	0xbe074802	-0.13211063
75	0xbe78e2db	-0.24305288
76	0xbde5d869	-0.112229176
77	0xbdcf109a	-0.10110588
78	0x3caae202	0.020859722
79	0x3d923d25	0.07140569
80	0xbe753089	-0.23944296
81	0xbe56eba7	-0.20988332
82	0xbdeb6b21	-0.114950426
83	0xbcba18a9	-0.022716837
84	0x3dbab026	0.09115629
85	0xbe1a038e	-0.15040419
86	0xbe4f1572	-0.20223024
87	0xbe9b0f1b	-0.30284962
88	0xbe02a687	-0.12758838
89	0xbbe80811	-0.0070810397
90	0xbe46c82d	-0.19412299
91	0xbe9f3ef3	-0.31102714
92	0xbe9f1512	-0.31070763
93	0xbe66fdf9	-0.2255782
94	0xbe097fb6	-0.13427624
95	0xbe3dc21f	-0.18531083
96	0xbe641c9d	-0.2227654
97	0xbe3f5f84	-0.1868878
98	0xbd926fe1	-0.071502455
99	0xbdb8d8f5	-0.09025756
100	0xbdb36f06	-0.087614104
101	0xbdec3088	-0.11532694
102	0x3c12bbc1	0.008955897
103	0x3d449ce6	0.048001193
104	0x3d326905	0.043557186
105	0x3bc7fff6	0.006103511
106	0xbe0579f7	-0.13034807
107	0xbda3577f	-0.07975673
108	0xbd4dbf57	-0.050231304
109	0xbcf0395f	-0.029324232
110	0x3d4f64a5	0.05063309
111	0xbd2c5ad2	-0.0420788
112	0xbd566b54	-0.05234845
113	0xbcb8249a	-0.02247839
114	0x3c59492e	0.013262076
115	0x3c7917e6	0.015203452
116	0xbce76a17	-0.02824883
117	0xbca34c2d	-0.019933784
118	0xbb9601b4	-0.0045778397
119	0xbd15b9cd	-0.036554147
120	0x3cf7c3cf	0.030244736
121	0x3cd8bb0c	0.026456378
122	0x3df00323	0.11719348
123	0x3dcc4ae1	0.099752195
124	0x3dac60af	0.084168784
125	0x3da4456e	0.08021055
126	0x3d204014	0.03912361
127	0x3d86ec58	0.06588048
128	0x3deac923	0.11464145
129	0x3e6a166b	0.22860114
130	0xbd71a2fd	-0.05899333
131	0xbd33b694	-0.043875292
132	0xbd0e6ec9	-0.03477362
133	0xbdae2c6a	-0.08504565
134	0x3cfb6c9b	0.030691436
135	0x3db5f809	0.088851996
136	0xbd041784	-0.03224899
137	0xbd945863	-0.07243421
138	0x3bac86a1	0.0052650725
139	0x3c537bdd	0.012907949
140	0x3d1eab1f	0.038737413
141	0xbd84b941	-0.06480647
142	0xbb415f2a	-0.0029506185
143	0xbdee5f42	-0.11639263
144	0xbd4fbfeb	-0.050720137
145	0x3ce99018	0.028511092
146	0xbe13e89a	-0.14444199
147	0xbdf667ca	-0.12031515
148	0xbe3b114d	-0.18268318
149	0x3cfd23d0	0.030900866
150	0xbe5d393b	-0.21603863
151	0xbddbb2bc	-0.1072745
152	0xbdb981d1	-0.09057964
153	0x3d8f27f8	0.06990045
154	0x3e1aae08	0.1510545
155	0xbe8c1900	-0.27362823
156	0xbe10b8f6	-0.14133057
157	0xbe0db03e	-0.13836762
158	0x3daf5db8	0.08562797
159	0x3e820b5c	0.25399292
160	0xbe652169	-0.22376026
161	0xbe0e8c61	-0.13920738
162	0xbe2fe288	-0.17176259
163	0xbce6f383	-0.028192287
164	0x3e72e259	0.23719157
165	0xbe80ac4f	-0.2513146
166	0xbe22e209	-0.15906538
167	0xbe179419	-0.14802589
168	0x3d02ec72	0.031963773
169	0x3e21d995	0.15805657
170	0xbe200893	-0.15628271
171	0xbde6c98a	-0.11268909
172	0xbc9aefe3	-0.018913215
173	0x3c8b124a	0.016976494
174	0x3d2e6698	0.04257831
175	0x3d8a4c2f	0.06752812
176	0xba8a8b50	-0.0010570083
177	0xbdd00c40	-0.101585865
178	0xbe110b62	-0.14164498
179	0xbde5c6c0	-0.11219549
180	0x3d9c50af	0.07632577
181	0xbd09b96d	-0.0336241
182	0xbd66c4a3	-0.05633987
183	0xbd90b5f9	-0.070659585
184	0xbd947062	-0.07247998
185	0xbc331a25	-0.010931526
186	0xbd8ed2b0	-0.06973779
187	0xbce0f9da	-0.027462889
188	0xbd845dc4	-0.06463197
189	0xbbe16112	-0.0068780268
190	0xbbe0e5a4	-0.006863313
191	0xbb514411	-0.003193144
192	0x3c2121d8	0.009834729
193	0xbd3e8400	-0.046512604
194	0xbc48e62b	-0.012261908
195	0x3d9b8afa	0.07594867
196	0x3af7cdce	0.0018905939
197	0xbca8414c	-0.020538948
198	0x3cd9a0ca	0.026565928
199	0xbd1dd685	-0.03853466
200	0x3e7b5274	0.24543172
201	0x3dda810d	0.10669146
202	0x3cda9b98	0.026685521
203	0xbc1225f9	-0.008920186
204	0xbe93e239	-0.28883532
205	0x3e45c89c	0.19314808
206	0x3da7ffd2	0.08203091
207	0x3d15924e	0.03651648
208	0x3d91317c	0.070895165
209	0xbe41ad9e	-0.18913886
210	0x3dde8cef	0.10866725
211	0x3d2fff09	0.04296783
212	0x3da1029d	0.078618266
213	0x3b23e495	0.0025008072
214	0xbe50c319	-0.20386924
215	0xbb2de580	-0.0026534498
216	0x3d155163	0.03645457
217	0x3d54fd62	0.051999457
218	0xbb97157a	-0.0046107145
219	0xbdcecde1	-0.10097862
220	0xbcceabb1	-0.025228353
221	0xbcc1e724	-0.023669787
222	0xbd413d43	-0.047177564
223	0xbd1c0ca2	-0.038097985
224	0xbe6ac57a	-0.22926894
225	0x3e6585a8	0.22414267
226	0x3c9a23a7	0.018815828
227	0xbcdbeb3f	-0.026845573
228	0xbd987eef	-0.07446086
229	0xbe330093	-0.17480688
230	0x3cc64e2f	0.024207203
231	0xbd2846e0	-0.041083217
232	0xbe51a004	-0.20471197
233	0xbe2653b0	-0.16242862
234	0xbe641ad0	-0.22275853
235	0xbd0fe6cc	-0.035132214
236	0xbd7698cc	-0.060204312
237	0xbd82d8a5	-0.06388978
238	0xbe1a3a10	-0.15061212
239	0xbd278d9e	-0.04090654
240	0x3e2255c9	0.15853037
241	0x3bf0f2f7	0.0073531824
242	0xbcfc77b1	-0.030818792
243	0xbcd10aad	-0.025517786
244	0xbdb3dd4c	-0.087824434
245	0x3dc661e3	0.09686639
246	0x3e006d8b	0.12541787
247	0x3d37e2b7	0.044893946
248	0x3d99f5d4	0.07517591
249	0x3c52c556	0.012864431
250	0xbe2bd489	-0.16780294
251	0xbe640d57	-0.22270714
252	0xbdd1df7c	-0.102477044
253	0xbd518fc3	-0.051162492
254	0x3d90d435	0.07071725
255	0xbe0b1a14	-0.13584167

conv2.bias f4 [16]
0	0x3f150c70	0.58222103
1	0x3e610d59	0.21977748
2	0x3f8954b7	1.0728978
3	0x3f76a079	0.9633861
4	0x3e16c65f	0.1472411
5	0xbe8c754a	-0.27433234
6	0x3d6cace7	0.05778208
7	0x3f4b7291	0.7947169
8	0xbe3ecc28	-0.18632567
9	0xbe4ef950	-0.20212293
10	0x3d9989f9	0.07497019
11	0x3ebb42a2	0.36574274
12	0xbed962ae	-0.424581
13	0xbd3138fa	-0.043267228
14	0xbe81a9ce	-0.25324863
15	0xbd71f2c3	-0.059069406

fc.weight f4 [10, 400]
0	0x3e243cfe	0.16038892
1	0x3e092b34	0.13395387
2	0x3d6eaf8f	0.058272894
3	0x3db3c450	0.08777678
4	0x3e0c0b4a	0.13676181
5	0x3c52fd2c	0.012877744
6	0xbd437279	-0.04771659
7	0xbd834be4	-0.06410959
8	0xbc4c7bbb	-0.0124806715
9	0x3a27cd0d	0.00064010994
10	0xbd939268	-0.07205659
11	0xbde26cec	-0.110559314
12	0xbd8022c7	-0.06256633
13	0xbdc904c2	-0.098153606
14	0xbd9946f3	-0.074842356
15	0xbc739edc	-0.014869418
16	0x3bba28de	0.0056811413
17	0xba9a27b3	-0.0011761099
18	0xbb170678	-0.0023044627
19	0xbd1ab3bf	-0.037769075
20	0x3e0d8d66	0.1382347
21	0x3e1a65b2	0.15077856
22	0x3e208d8b	0.15678994
23	0x3c83c9be	0.01608741
24	0xbcdbf8a7	-0.026851965
25	0xbe049434	-0.1294716
26	0xbe026523	-0.12733893
27	0xbde64bf8	-0.11244959
28	0xbda470ea	-0.08029349
29	0xbd939052	-0.07205261
30	0x3d0c30ec	0.034226343
31	0x3da39bdc	0.07988712
32	0xbe11961c	-0.14217418
33	0x3c8b7edc	0.017028265
34	0x3db54894	0.08851734
35	0xbcbfe9b5	-0.02342687
36	0x3d33544f	0.043781575
37	0xbd402f67	-0.046920206
38	0x3d9c1c35	0.076225676
39	0xbcef3946	-0.029202115
40	0xbe173e31	-0.14769818
41	0xbce6d36c	-0.028176986
42	0xbdb47d75	-0.088129915
43	0x3d8eedae	0.069789276
44	0xbdb3beb1	-0.08776606
45	0xbe713359	-0.23554744
46	0xbdacb9df	-0.084338896
47	0xbcc42f56	-0.023948353
48	0xbdd6a26f	-0.104802005
49	0xbe55490b	-0.20828645
50	0x3e4e62a1	0.20154811
51	0x3e14cfaa	0.14532343
52	0x3df62391	0.120185025
53	0x3df49942	0.11943294
54	0x3e3e5ba0	0.1858964
55	0xbcc9d245	-0.024636397
56	0x3e656fd7	0.22405945
57	0x3e5b8bac	0.2144
58	0x3da341e1	0.0797155
59	0x3c6a6d95	0.014308353
60	0x3cc518f3	0.024059748
61	0xbbd9f5e2	-0.006651626
62	0x3d8da140	0.069155216
63	0x3dbb39c9	0.09141881
64	0xbc34ec62	-0.011042686
65	0x3c0fbbed	0.008772832
66	0xbdb2c75c	-0.08729431
67	0xbccdadb4	-0.025107242
68	0x3c721add	0.0147769125
69	0x3e0d1e8d	0.13781185
70	0x3d2d4706	0.04230406
71	0xbc2a160a	-0.010381231
72	0xbc257104	-0.010097746
73	0x3d7f56d5	0.06233867
74	0x3ddbef50	0.107390046
75	0x3e530eea	0.20611158
76	0x3e2d87d6	0.16946349
77	0x3e03d508	0.12874234
78	0x3dfcef92	0.12350382
79	0x3cf555c1	0.029948117
80	0x3d20912d	0.03920095
81	0xbcf10992	-0.029423509
82	0xbdabae41	-0.08382846
83	0xbd1f08df	-0.03882682
84	0x3d2e3cd6	0.042538486
85	0xbe17efbf	-0.1483755
86	0xbdb9ba37	-0.09068721
87	0xbe0fd9d8	-0.14047945
88	0xbe6622ad	-0.22474165
89	0xbd3675a9	-0.044545803
90	0xbdc9efe2	-0.09860207
91	0xbda09538	-0.07840961
92	0xbdcbe26d	-0.09955297
93	0xbd8aa320	-0.06769395
94	0xbda0d782	-0.07853605
95	0xbd8dc4af	-0.0692228
96	0xbc7526fb	-0.014962907
97	0x3b56f70a	0.0032801055
98	0xbcd51ace	-0.026013758
99	0xbdba919e	-0.091098055
100	0xbd496c99	-0.049175832
101	0xbd86fae9	-0.06590826
102	0xbd050ea6	-0.032484673
103	0x3db1e5f6	0.0868644
104	0x3dbf93b2	0.093543425
105	0x3cfe99e2	0.031079236
106	0x3d3ca04c	0.04605131
107	0xbce8677a	-0.028369654
108	0x3ddeec62	0.1088493
109	0x3e3dfcd1	0.18553473
110	0x3dabcb12	0.08388342
111	0x3d0a6db5	0.03379603
112	0xba84f003	-0.001014233
113	0x3dcfe57c	0.101511925
114	0x3dd549d6	0.10414474
115	0x3ce506db	0.02795737
116	0x3c19d9bc	0.009390291
117	0x3cdb753f	0.026789306
118	0x3db8db9f	0.090262644
119	0x3d0ebd23	0.034848344
120	0xbcd3efda	-0.025871206
121	0xbd0ef68a	-0.034903087
122	0x3daab5f9	0.0833549
123	0x3e0be0df	0.1366
124	0x3d3bbb5d	0.04583298
125	0x3e3ac878	0.18240535
126	0xbd12dc8b	-0.035854857
127	0xbd516e1e	-0.051130407
128	0xbd9bd5fa	-0.07609172
129	0x3baf6592	0.0053526843
130	0x3d58c828	0.05292526
131	0xbb11d552	-0.0022252393
132	0xbbf67e50	-0.007522382
133	0x3c8deeee	0.017325845
134	0xbd52a700	-0.051428795
135	0x3d1b7b70	0.037959516
136	0x3c838757	0.016055746
137	0x3df13e32	0.11779441
138	0x3d16faf0	0.036860406
139	0x3d3512f4	0.04420753
140	0x3e02db92	0.12779072
141	0xbbe053c0	-0.0068459213
142	0x3d054129	0.032532845
143	0x3dc2aaed	0.09505258
144	0x3d80e197	0.06293028
145	0xbe0ff630	-0.14058757
146	0xbcc01762	-0.02344865
147	0xbd0c11df	-0.03419673
148	0x3de5c1cb	0.11218604
149	0x3e13076d	0.14358301
150	0xbe4cf409	-0.20014967
151	0xbd1fab72	-0.038981862
152	0xbbaeb19a	-0.0053312303
153	0x3d9d4091	0.07678331
154	0x3e41e2a4	0.18934113
155	0xbe054b93	-0.1301711
156	0x3d0ff0d9	0.0351418
157	0x3d8218aa	0.063523605
158	0x3da29e03	0.079402946
159	0x3d074f39	0.033034537
160	0x3b6f9d35	0.0036562209
161	0xbcfe60c7	-0.031052006
162	0x3cba9ceb	0.022779902
163	0xbcaea839	-0.02132045
164	0x3ddf7da8	0.10912639
165	0x3db05c99	0.086114116
166	0x3d7ee761	0.06223238
167	0x3ddd5e26	0.10808973
168	0xbce2b11a	-0.02767234
169	0x3e088a9a	0.13334122
170	0x3e421bd3	0.18955927
171	0x3e9b3440	0.303133
172	0x3e29e574	0.16591436
173	0x3d67e3d1	0.056613747
174	0x3e1bb9f1	0.1520765
175	0xbd1100ed	-0.035401274
176	0xbd8a36b7	-0.06748717
177	0xbdd0a7b3	-0.10188236
178	0xbcd23d14	-0.02566389
179	0xbd5b029a	-0.053469278
180	0xbcb4acb4	-0.022055008
181	0xbcd346b6	-0.025790554
182	0xbd33ea82	-0.043924816
183	0xbda7c6e1	-0.0819223
184	0x38ed713e	0.00011322134
185	0x3d87633b	0.066107236
186	0x3cbf4d95	0.023352424
187	0xbda17987	-0.078845076
188	0xbce848bb	-0.028354993
189	0xbd34e530	-0.044163883
190	0x3da26a6d	0.07930455
191	0x3ccff4a4	0.025385208
192	0xbd103ab7	-0.035212245
193	0xbd15d934	-0.036584094
194	0x3bd5e33c	0.0065273326
195	0x3d953ce8	0.072870076
196	0x3e08b167	0.13348924
197	0x3e0b3b45	0.13596828
198	0x3e0bf351	0.13667037
199	0x3cb0a06e	0.021560874
200	0x3cfd189c	0.030895524
201	0xbd0a260a	-0.033727683
202	0xbd2570d7	-0.040390816
203	0xbe34260b	-0.17592637
204	0xbde694f5	-0.1125888
205	0x3dfd8ef2	0.1238078
206	0xbd4fc1ce	-0.050721936
207	0xbda976d2	-0.08274616
208	0xbcdd3209	-0.027001398
209	0x3dba78d0	0.091050744
210	0x3d8d4d1e	0.068994746
211	0xbc8e78c6	-0.017391574
212	0xbd768f06	-0.06019499
213	0xbc0dfb74	-0.008665908
214	0x3dc93264	0.098240644
215	0x3cf4f93a	0.029903997
216	0xbd854edb	-0.06509181
217	0xbd8e8b3e	-0.06960152
218	0xbda5c9a0	-0.080950975
219	0x3c9251de	0.017861303
220	0x3d49fa43	0.049310934
221	0x3cc10f47	0.023566855
222	0x3d711ba0	0.058864236
223	0xbc21eba9	-0.009882846
224	0x3d1d296e	0.03836959
225	0xbd003030	-0.031295955
226	0xbdc33f27	-0.0953353
227	0xbd1b7c35	-0.03796025
228	0x3db6b762	0.08921696
229	0x3d7aa046	0.061188005
230	0x3da1529a	0.07877083
231	0xbcd0a4fc	-0.025469296
232	0x3d3e8e4a	0.046522416
233	0x3d4569fb	0.048196774
234	0x3dbfb5e7	0.09360867
235	0x3d530c77	0.05152556
236	0xbcbe1ad9	-0.023206161
237	0xbc911bca	-0.017713446
238	0x3d8e61d4	0.06952253
239	0x3d23d699	0.03999958
240	0xbdcfe7d3	-0.10151639
241	0xbddedf99	-0.108824916
242	0xbda6a0e1	-0.08136154
243	0x3dd08585	0.10181717
244	0x3d85294d	0.06502018
245	0xbe0a1a6b	-0.1348664
246	0xbda9a2a3	-0.082829736
247	0xbce63d64	-0.028105445
248	0x3d32617d	0.043550003
249	0x3cc6d078	0.024269328
250	0xbd85584c	-0.06510982
251	0xbd9dac5e	-0.07698892
252	0xbd626711	-0.055274073
253	0x3c324b81	0.010882259
254	0xbcbf98e2	-0.02338833
255	0xbd8063b2	-0.06269015

fc.bias f4 [10]
0	0xbea0987d	-0.3136634
1	0xbf02f550	-0.5115557
2	0xbe49e855	-0.19717534
3	0x3ea586dc	0.32329452
4	0x3f068497	0.52546066
5	0xbe61db74	-0.22056371
6	0x3eb022c2	0.34401518
7	0xbe85d871	-0.26141694
8	0x3f169443	0.5881998
9	0xbe770e4e	-0.2412655
